…
m torch import nn</span><br><span class="line">from torch.nn import functional as F</span><br><span class="line">from d2l import torch as d2l</span><br><span class="line"></span><br><span class="line">#加载预训练的ResNet-18模型来提取图像特征，并查看该模型的最后三个子模块的结构和参数</span><br><span class="line">pretrained_net = torchvision.models.resnet18(pretrained=True)</span><br><span class="line">list(pretrained_net.children())[-3:]</span><br><span class="line"></span><br><span class="line">out:</span><br><span class="line">[Sequential(</span><br><span class="line">   (0): BasicBlock(</span><br><span class="line">     (conv1): Conv2d(256, 512, kernel_size=(3, 3), stride=(2, 2), padding=(1, 1), bias=False)</span><br><span class="line">     (bn1): BatchNorm2d(512, eps=1e-05, momentum=0.1, affine=True, track_running_stats=True)</span><br><span class="line">     (relu): ReLU(inplace=True)</span><br><span class="line">     (conv2): Conv2d(512, 512, kernel_size=(3, 3), stride=(1, 1), padding=(1, 1), bias=False)</span><br><span class="line">     (bn2): BatchNorm2d(512, eps=1e-05, momentum=0.1, affine=True, track_running_stats=True)</span><br><span class="line">     (downsample): Sequential(</span><br><span class="line">       (0): Conv2d(256, 512, kernel_size=(1, 1), stride=(2, 2), bias=False)</span><br><span class="line">       (1): BatchNorm2d(512, eps=1e-05, momentum=0.1, affine=True, track_running_stats=True)</span><br><span class="line">     )</span><br><span class="line">   )</span><br><span class="line">   (1): BasicBlock(</span><br><span class="line">     (conv1): Conv2d(512, 512, kernel_size=(3, 3), stride=(1, 1), padding=(1, 1), bias=False)</span><br><span class="line">     (bn1): BatchNorm2d(512, eps=1e-05, momentum=0.1, affine=True, track_running_stats=True)</span><br><span class="line">     (relu): ReLU(inplace=True)</span><br><span class="line">     (conv2): Conv2d(512, 512, kernel_size=(3, 3), stride=(1, 1), padding=(1, 1), bias=False)</span><br><span class="line">     (bn2): BatchNorm2d(512, eps=1e-05, momentum=0.1, affine=True, track_running_stats=True)</span><br><span class="line">   )</span><br><span class="line"> ),</span><br><span class="line"> AdaptiveAvgPool2d(output_size=(1, 1)),</span><br><span class="line"> Linear(in_features=512, out_features=1000, bias=True)]</span><br></pre></td></tr></table></figure><figure class="highlight plaintext"><table><tr><td class="gutter"><
…
